{"class_name": "Model", "config": {"name": "model", "layers": [{"name": "image", "class_name": "InputLayer", "config": {"batch_input_shape": [null, 240, 240, 3], "dtype": "float32", "sparse": false, "name": "image"}, "inbound_nodes": []}, {"name": "batch_normalization_v1", "class_name": "BatchNormalization", "config": {"name": "batch_normalization_v1", "trainable": true, "batch_input_shape": [null, null, null, 3], "dtype": "float32", "axis": [3], "momentum": 0.99, "epsilon": 0.001, "center": true, "scale": true, "beta_initializer": {"class_name": "Zeros", "config": {}}, "gamma_initializer": {"class_name": "Ones", "config": {}}, "moving_mean_initializer": {"class_name": "Zeros", "config": {}}, "moving_variance_initializer": {"class_name": "Ones", "config": {}}, "beta_regularizer": null, "gamma_regularizer": null, "beta_constraint": null, "gamma_constraint": null}, "inbound_nodes": [[["image", 0, 0, {}]]]}, {"name": "conv0", "class_name": "Conv2D", "config": {"name": "conv0", "trainable": true, "dtype": "float32", "filters": 8, "kernel_size": [1, 1], "strides": [1, 1], "padding": "same", "data_format": "channels_last", "dilation_rate": [1, 1], "activation": "selu", "use_bias": true, "kernel_initializer": {"class_name": "GlorotUniform", "config": {"seed": null}}, "bias_initializer": {"class_name": "Zeros", "config": {}}, "kernel_regularizer": null, "bias_regularizer": null, "activity_regularizer": null, "kernel_constraint": null, "bias_constraint": null}, "inbound_nodes": [[["batch_normalization_v1", 0, 0, {}]]]}, {"name": "batch_normalization_v1_1", "class_name": "BatchNormalization", "config": {"name": "batch_normalization_v1_1", "trainable": true, "dtype": "float32", "axis": [3], "momentum": 0.99, "epsilon": 0.001, "center": true, "scale": true, "beta_initializer": {"class_name": "Zeros", "config": {}}, "gamma_initializer": {"class_name": "Ones", "config": {}}, "moving_mean_initializer": {"class_name": "Zeros", "config": {}}, "moving_variance_initializer": {"class_name": "Ones", "config": {}}, "beta_regularizer": null, "gamma_regularizer": null, "beta_constraint": null, "gamma_constraint": null}, "inbound_nodes": [[["conv0", 0, 0, {}]]]}, {"name": "average_pooling2d", "class_name": "AveragePooling2D", "config": {"name": "average_pooling2d", "trainable": true, "dtype": "float32", "pool_size": [3, 3], "padding": "valid", "strides": [3, 3], "data_format": "channels_last"}, "inbound_nodes": [[["batch_normalization_v1_1", 0, 0, {}]]]}, {"name": "conv2_sparse", "class_name": "Conv2D", "config": {"name": "conv2_sparse", "trainable": true, "dtype": "float32", "filters": 8, "kernel_size": [4, 4], "strides": [1, 1], "padding": "same", "data_format": "channels_last", "dilation_rate": [1, 1], "activation": "selu", "use_bias": true, "kernel_initializer": {"class_name": "GlorotUniform", "config": {"seed": null}}, "bias_initializer": {"class_name": "Zeros", "config": {}}, "kernel_regularizer": null, "bias_regularizer": null, "activity_regularizer": null, "kernel_constraint": null, "bias_constraint": null}, "inbound_nodes": [[["average_pooling2d", 0, 0, {}]]]}, {"name": "batch_normalization_v1_2", "class_name": "BatchNormalization", "config": {"name": "batch_normalization_v1_2", "trainable": true, "dtype": "float32", "axis": [3], "momentum": 0.99, "epsilon": 0.001, "center": true, "scale": true, "beta_initializer": {"class_name": "Zeros", "config": {}}, "gamma_initializer": {"class_name": "Ones", "config": {}}, "moving_mean_initializer": {"class_name": "Zeros", "config": {}}, "moving_variance_initializer": {"class_name": "Ones", "config": {}}, "beta_regularizer": null, "gamma_regularizer": null, "beta_constraint": null, "gamma_constraint": null}, "inbound_nodes": [[["conv2_sparse", 0, 0, {}]]]}, {"name": "conv2_dense", "class_name": "Conv2D", "config": {"name": "conv2_dense", "trainable": true, "dtype": "float32", "filters": 16, "kernel_size": [6, 6], "strides": [1, 1], "padding": "same", "data_format": "channels_last", "dilation_rate": [1, 1], "activation": "selu", "use_bias": true, "kernel_initializer": {"class_name": "GlorotUniform", "config": {"seed": null}}, "bias_initializer": {"class_name": "Zeros", "config": {}}, "kernel_regularizer": null, "bias_regularizer": null, "activity_regularizer": null, "kernel_constraint": null, "bias_constraint": null}, "inbound_nodes": [[["batch_normalization_v1_1", 0, 0, {}]]]}, {"name": "up_sampling2d", "class_name": "UpSampling2D", "config": {"name": "up_sampling2d", "trainable": true, "dtype": "float32", "size": [3, 3], "data_format": "channels_last"}, "inbound_nodes": [[["batch_normalization_v1_2", 0, 0, {}]]]}, {"name": "batch_normalization_v1_3", "class_name": "BatchNormalization", "config": {"name": "batch_normalization_v1_3", "trainable": true, "dtype": "float32", "axis": [3], "momentum": 0.99, "epsilon": 0.001, "center": true, "scale": true, "beta_initializer": {"class_name": "Zeros", "config": {}}, "gamma_initializer": {"class_name": "Ones", "config": {}}, "moving_mean_initializer": {"class_name": "Zeros", "config": {}}, "moving_variance_initializer": {"class_name": "Ones", "config": {}}, "beta_regularizer": null, "gamma_regularizer": null, "beta_constraint": null, "gamma_constraint": null}, "inbound_nodes": [[["conv2_dense", 0, 0, {}]]]}, {"name": "conv2_concat", "class_name": "Concatenate", "config": {"name": "conv2_concat", "trainable": true, "dtype": "float32", "axis": -1}, "inbound_nodes": [[["up_sampling2d", 0, 0, {}], ["batch_normalization_v1_3", 0, 0, {}]]]}, {"name": "conv3", "class_name": "Conv2D", "config": {"name": "conv3", "trainable": true, "dtype": "float32", "filters": 16, "kernel_size": [5, 5], "strides": [1, 1], "padding": "same", "data_format": "channels_last", "dilation_rate": [1, 1], "activation": "selu", "use_bias": true, "kernel_initializer": {"class_name": "GlorotUniform", "config": {"seed": null}}, "bias_initializer": {"class_name": "Zeros", "config": {}}, "kernel_regularizer": null, "bias_regularizer": null, "activity_regularizer": null, "kernel_constraint": null, "bias_constraint": null}, "inbound_nodes": [[["conv2_concat", 0, 0, {}]]]}, {"name": "batch_normalization_v1_4", "class_name": "BatchNormalization", "config": {"name": "batch_normalization_v1_4", "trainable": true, "dtype": "float32", "axis": [3], "momentum": 0.99, "epsilon": 0.001, "center": true, "scale": true, "beta_initializer": {"class_name": "Zeros", "config": {}}, "gamma_initializer": {"class_name": "Ones", "config": {}}, "moving_mean_initializer": {"class_name": "Zeros", "config": {}}, "moving_variance_initializer": {"class_name": "Ones", "config": {}}, "beta_regularizer": null, "gamma_regularizer": null, "beta_constraint": null, "gamma_constraint": null}, "inbound_nodes": [[["conv3", 0, 0, {}]]]}, {"name": "conv4", "class_name": "Conv2D", "config": {"name": "conv4", "trainable": true, "dtype": "float32", "filters": 3, "kernel_size": [1, 1], "strides": [1, 1], "padding": "same", "data_format": "channels_last", "dilation_rate": [1, 1], "activation": "linear", "use_bias": true, "kernel_initializer": {"class_name": "GlorotUniform", "config": {"seed": null}}, "bias_initializer": {"class_name": "Zeros", "config": {}}, "kernel_regularizer": null, "bias_regularizer": null, "activity_regularizer": null, "kernel_constraint": null, "bias_constraint": null}, "inbound_nodes": [[["batch_normalization_v1_4", 0, 0, {}]]]}, {"name": "re_lu", "class_name": "ReLU", "config": {"name": "re_lu", "trainable": true, "dtype": "float32", "max_value": 255.0, "negative_slope": 0.10000000149011612, "threshold": 0.0}, "inbound_nodes": [[["conv4", 0, 0, {}]]]}, {"name": "cropping2d", "class_name": "Cropping2D", "config": {"name": "cropping2d", "trainable": true, "dtype": "float32", "cropping": [[8, 8], [8, 8]], "data_format": "channels_last"}, "inbound_nodes": [[["re_lu", 0, 0, {}]]]}], "input_layers": [["image", 0, 0]], "output_layers": [["cropping2d", 0, 0]]}, "keras_version": "2.2.4-tf", "backend": "tensorflow"}